Atlas.tflite (tflite, 206748 bytes, 9 tensors)

Const_1 f4 [32]
00000000: d266 86bc 0c69 c4bc 2f70 83bb 7a13 b5bb
00000010: 72fd cabc 52b6 2f3b 0aac 9bbc 988a 853b
00000020: 6952 7abc 5e8c 92bc 618c b73c 460d 3ebb
00000030: 3181 89bc a293 acbb 5d8b 963c e884 d93b
00000040: 5277 c23c 80d4 013c 7b4f 0d3a 44f9 843c
00000050: 76e4 9dbb 5e8e 9fbc 3f73 2f3c 0419 773c
00000060: 15b1 ce3b e0e6 833c dca2 00bc 2ceb 3a3c
00000070: 4b43 aa3c 7a23 c5bc 4314 f93b ce9f e33c
-0.01640645 -0.023975872 -0.004011176 -0.0055260034 -0.024779055 0.0026811552 -0.019002933 0.0040753596
-0.015278437 -0.017889198 0.022405805 -0.002899961 -0.016785236 -0.0052666226 0.018377 0.006638158
0.023738537 0.007924199 0.00053905667 0.01623214 -0.0048184944 -0.019477066 0.010708629 0.015081648
0.006307731 0.0161013 -0.007851329 0.011408608 0.02078404 -0.024064768 0.0076012923 0.027786162

Const_2 f4 [32]
00000000: 7e74 863f 0f43 813f 73a3 783f 9ca2 713f
00000010: 18ec 813f 0ebc 843f dc68 833f 9338 7b3f
00000020: 2d37 8c3f 03b1 8c3f cb84 783f 3f33 7a3f
00000030: bfe1 813f 57bd 7e3f c4a8 773f 185f 7b3f
00000040: d5d5 783f ffa3 783f 6b42 753f 1115 713f
00000050: 56de 693f 9386 813f d832 773f 0d08 753f
00000060: aca5 883f c583 803f 4cd0 743f 2b93 823f
00000070: 2d7d 733f 72e0 7a3f ef35 7d3f 43ec 813f
1.05043 1.009859 0.97124404 0.9438875 1.0150175 1.036989 1.0266376 0.981332
1.0954338 1.099152 0.97077626 0.97734445 1.0147017 0.9950766 0.9674189 0.98191977
0.9720128 0.9712524 0.9580447 0.9417277 0.9135488 1.0119194 0.96561956 0.9571541
1.0675559 1.0040213 0.95630336 1.0201162 0.9511288 0.97998726 0.9891042 1.0150226

Const_3 f4 [32]
00000000: 03c6 803c 06f4 0bbb 9032 41bc 890f 25bd
00000010: 4367 893c 01be 343d bd97 a93c a7bd 9b3b
00000020: 38aa 143d 9f01 153c 857d 66bd acbe 023c
00000030: 1342 893a ff34 8bbc 095c 96bb c85d 4d3b
00000040: 5fc1 e0bb ce72 453c 9898 b83c c35a 6fbd
00000050: e9c6 c7bc 23f0 df3a 41e6 63bd dcb4 b73c
00000060: dfa5 0a3d 0541 183c 9528 e3bb e54b 7d3c
00000070: f50f 36bd ad94 093b d906 0b3c a49d 203c
0.01571942 -0.0021355166 -0.01179184 -0.04029802 0.016772872 0.044126514 0.020702237 0.004752833
0.036295146 0.009094625 -0.05627205 0.00798003 0.0010471962 -0.016993044 -0.004588608 0.0031336416
-0.006858989 0.012051297 0.0225337 -0.058436166 -0.02438684 0.0017085116 -0.05563951 0.022425108
0.033849593 0.009292846 -0.006932328 0.015459989 -0.04444881 0.0020993159 0.008485519 0.009803209

Const_5 f4 [32]
00000000: dda0 e5bd 1178 373d 3cef f6bd 250b 413d
00000010: c7eb 263d 9f48 7ebb 7182 f63d a468 02be
00000020: f29e 6a3b 4f54 06be 4af2 bc3b 1b00 043e
00000030: 50ab 01be 42a9 8d3d 187e 36be dccd 203e
00000040: 2d14 283e 2ef9 8fbd 52d4 e23d dc1f cd3d
00000050: 9ed8 f1bd 9044 a43d 4bca c7bd cd06 1f3d
00000060: 8d89 423c b79d 26be f6d1 c6bd 02d0 1bbd
00000070: 9d5b 24be 98ca 3e3e d585 d03d 02b9 1e3c
-0.11212323 0.04479224 -0.12057349 0.04712977 0.0407522 -0.003880061 0.120365985 -0.1273523
0.0035800305 -0.13118099 0.005766188 0.12890665 -0.12663007 0.06917049 -0.17821538 0.15703529
0.16413946 -0.07029949 0.11075653 0.10015842 -0.118088946 0.0802089 -0.09755381 0.038824845
0.011873615 -0.16271101 -0.097080156 -0.03804017 -0.16050573 0.18631971 0.101817764 0.009687664

Const_6 f4 [32]
00000000: 2813 8c3f 1ec7 a03f 06ff a03f f1e8 883f
00000010: 4b95 953f b487 a33f 3d23 8e3f 9601 813f
00000020: b0df 8b3f 8324 983f ffae 8a3f ca9f 843f
00000030: cec5 923f f5d0 8a3f fcea b33f be4b 943f
00000040: 587a 903f 4900 ab3f 2ad6 8b3f 8304 8f3f
00000050: 5fd1 883f 318c 8b3f 9a31 9f3f 245d 8f3f
00000060: f844 8a3f 1060 a23f 8701 8b3f 3b6b 8c3f
00000070: 96ac 8f3f 119b 913f b0ce a53f b0ca 7b3f
1.0943346 1.2560766 1.2577827 1.0696088 1.1686186 1.2775788 1.1104504 1.0078609
1.0927639 1.1886142 1.0834655 1.0361264 1.1466615 1.0845019 1.4056087 1.1585615
1.1287336 1.3359462 1.0924733 1.1173252 1.0688895 1.0902158 1.2437012 1.1200299
1.0802298 1.2685566 1.0859841 1.0970224 1.1224544 1.1375448 1.2953701 0.9835615

Const_7 f4 [32]
00000000: 21e3 973d 27d1 743e f431 7d3e 1ed3 4b3d
00000010: 5c69 d53d 49e6 823e 6b9e c23d 9648 1d3c
00000020: 0814 bc3d 1f53 6b3d 0758 0e3d 1eeb 2d3d
00000030: 8430 1b3d a074 953d c889 973e 3e36 e03d
00000040: 802e 353e c8a5 8b3e 21e4 933d 1064 ef3c
00000050: 1dbc 313d 6eab c13c a178 c03d 859b 6f3d
00000060: db9b 223d 9d35 813e 7ffe 8fbc ff45 813c
00000070: f542 c23c 55f2 743d 9107 803e 9153 be3b
0.07416368 0.2390791 0.24726087 0.049761884 0.10420486 0.2556632 0.09502872 0.009599825
0.09183508 0.057452317 0.03475192 0.042460553 0.037888065 0.07297635 0.29597306 0.10947846
0.1769352 0.2727492 0.072212465 0.029222518 0.04339229 0.023641314 0.09398008 0.058497924
0.039699417 0.25236216 -0.017577408 0.015780447 0.023713568 0.05980142 0.25005773 0.0058083017

MatMul f4 [32, 1536]
00000000: b480 a4bc 3e41 8dbb 7de5 133b 4af5 023d
00000010: 127f 01bd 70bc 503c fe3b 953b 0f3f dbba
00000020: 9105 643d 75ea 7ebc 8c21 c03c fdbb beba
00000030: f062 933c d4d2 e5bc f4f6 033d 7f27 253d
00000040: 122f 11bc cfe8 2bbd f22a 69bb 858d 143c
00000050: 0642 75bb 2360 bcbc 796d af3b 2b04 863c
00000060: 1f4c b4bc 198a 28bc 7d59 80bb 6cb2 9e3c
00000070: e1f5 91bc 5322 62bc 8ed3 94bc 1c7f d7bb
00000080: 30a4 4f3b a47e 34bc 5fa3 d23c 142b b93a
00000090: e8ee 8fbc aa1f 693c ab1a 75bd 23c0 1dbb
000000a0: 2d6d 51bc 82e9 2ab8 e2af 8f3b 3718 08bd
000000b0: db10 7a3c ed67 013d 9af5 dbbb fd3d 943a
000000c0: 86f9 423d 8a32 d3bc da3e 40bc 8805 6dbc
000000d0: adb0 833b f8aa 0bbd 08c4 d3bb 4b79 34bc
000000e0: 68c9 dfbc 1f64 df3c 7281 e43c 30e3 bf3b
000000f0: f914 3dbd 1423 4b3d 9db8 efbc 13a5 893c
00000100: 5837 45bc c591 a4bb 7d97 08bd d1bc 4ebc
00000110: e0ea debc b5f7 023c 51f1 e6bb 4999 d93c
00000120: ff9a e6bc 628a 2dbc 0093 07bc 2b28 9fbc
00000130: 31a4 39bd 5ad4 9b3c 7e66 753b c60b 583c
00000140: 2394 9cbc e515 86ba a240 30bb 18c3 6ebc
00000150: d237 8b3b 7791 e63c 9add 18bd a4f4 953c
00000160: 9f36 09bc 6fea 85bc f4fc 57bc 0d9c c6ba
00000170: b2de f53a 0fb4 3a3b 8060 ea3c f453 e7bb
00000180: ad46 f2bc bcf7 7e3c cc2a a1bc 3356 5c3d
00000190: 2ab4 17bc d9f0 813b 8ef0 78bc 1182 f6bc
000001a0: 606b 3b3d 7eac 433c 1e93 763b 339b ccbb
000001b0: 8c4a c03c d4db b1bc be65 193d 554f 213d
000001c0: adb5 09bc 2d3d 37bb 4121 34bc f02e 533b
000001d0: 190b f7bb 8d37 c43b ea84 ce3b 0b72 9d3c
000001e0: c7c1 46bb 7802 c4bc 9f68 d83a 2cfb 093d
000001f0: a096 83bc 7bd6 0bbb bd02 94bc ed02 9c3c
00000200: bcdf 8e3c 52d7 85bc 5abe 103c 302e 9e3b
00000210: d79c 4d3a b112 7e3c aff9 a9bb 6dbe 1f3a
00000220: b3e3 27bb 7cca 493c 6191 793c a1e9 46bc
00000230: d23d 463c 5bba cf3c a414 9a3b 08c4 4cbc
00000240: bfd7 bf3c 2039 4bbd 3a64 84bc 49c8 9a3c
00000250: dbbb 84b7 729e 51bb 3a3a 2b3c c117 06bd
00000260: bf7b ce3a 5d94 6f3c 35c7 3cbc ac09 203d
00000270: 7103 20bd 27f9 213d 7343 1a3b f9ef d93b
00000280: 812e 533c 0a41 a53c 7fbf 53bc 4ff1 483a
00000290: 5490 d9bc 209f 23bc eddb f5bc 156b 38bb
000002a0: a8bb 9cbc b243 96bc 6547 a83a ea42 523b
000002b0: 76fe d2bc 5e70 3f3d fe2c 6dbc 4013 3bbc
000002c0: d9ec 573b 3c5f 093d 91a6 9bbb 6df3 48bc
000002d0: 1fff 22bc feff 4f3d ca35 9cbc d231 073d
000002e0: 64fd e43b d8aa 44bc 28c0 91bc 7f93 143c
000002f0: b040 72bb edf9 2ebc 3b6f 923c c3e4 a23c
00000300: 153d c0ba ae0e bf3c f73c db3b f309 763d
00000310: 8dc3 28bc 637b 873c 8f9c 843c 2045 303b
00000320: 39af 053d 2fcc b6bc b769 35bc 1145 f23b
00000330: 0e57 333d 3b20 803c 81e0 dbbb 9a68 e13b
00000340: 4e6e 413c 3940 87bc f403 723c 2fa0 32bc
00000350: 0589 e0bb c7e3 d83b 4fda bdbc 36ff b4bb
00000360: 45b2 e9bc fc1a 08bb 8c41 173c 47d6 aa3c
00000370: dc78 b9bb ad52 8cbc 267f 873b 2ca3 f23c
00000380: 1db9 dd3a 8c14 ca3c 507a 473c d9e6 00bd
00000390: 2f77 853c 7c84 8e3c f9d3 78bc eebb 1a3c
000003a0: adf1 98bc 5241 52bc 1b0c 06bc c682 9fbb
000003b0: 2876 f13b 3a02 8f3c 43f2 e33b 956b ccbb
000003c0: 5c17 3b3d a369 0fbd 14af c0ba 7f8e a4b8
000003d0: 7911 4e3d e12d a9bc d404 ed3b 5ad1 ecbb
000003e0: c230 c3bb 108e 643c b3da 52bc e01a 1c3d
000003f0: c8c1 9c3b a4d9 1a3d 4ff6 3cbc 2084 c13b
-0.020080902 -0.004310756 0.0022567206 0.031972207 -0.031615324 0.0127402395 0.0045542708 -0.0016727167
0.05566937 -0.015558829 0.023453496 -0.0014551874 0.017991513 -0.028054632 0.032217935 0.04032087
-0.00886132 -0.04197007 -0.0035578576 0.009066944 -0.0037423386 -0.02299506 0.0053536263 0.01635941
-0.022008954 -0.010286831 -0.003916918 0.019372188 -0.01781744 -0.013802129 -0.018167283 -0.006576432
0.0031683557 -0.011016522 0.025712667 0.0014127218 -0.017569974 0.014228741 -0.059839886 -0.0024070821
-0.012782377 -4.074863e-05 0.0043849805 -0.033226218 0.015262808 0.031593252 -0.0067126276 0.0011309978
0.047601245 -0.025780935 -0.011733735 -0.014466651 0.004018864 -0.034098595 -0.0064625777 -0.011015247
-0.027317718 0.027269421 0.027893756 0.0058559403 -0.04616258 0.049594 -0.029262835 0.016802346
-0.012037121 -0.00502226 -0.033347595 -0.0126182595 -0.027211607 0.007993628 -0.00704781 0.02656235
-0.02815008 -0.010592075 -0.008274794 -0.019428333 -0.0453226 0.019022156 0.0037445123 0.013186401
-0.019113606 -0.0010229914 -0.0026893993 -0.014572881 0.0042485977 0.028145535 -0.03732071 0.01830513
-0.008374839 -0.016347138 -0.013182867 -0.0015152708 0.0018758385 0.002848867 0.028610468 -0.0070595685
-0.029574716 0.015561994 -0.019673727 0.053793143 -0.009259263 0.003965479 -0.015194071 -0.030091317
0.045756698 0.011942981 0.003762431 -0.006244087 0.023473047 -0.021711268 0.037450545 0.039382298
-0.008405131 -0.0027960048 -0.0109942565 0.0032224022 -0.0075391647 0.0059880675 0.0063024657 0.019219419
-0.0030327903 -0.023926958 0.0016510672 0.0336868 -0.016063035 -0.0021337557 -0.018067712 0.019044364
0.01744067 -0.016338024 0.008834446 0.0048272833 0.00078435004 0.015507386 -0.0051872353 0.00060937443
-0.0025617897 0.012316342 0.015232415 -0.012140662 0.0120997 0.025357416 0.0047021676 -0.012497909
0.023418305 -0.049615026 -0.016161073 0.018894332 -1.5823103e-05 -0.003198531 0.010450894 -0.032737497
0.0015753432 0.014622775 -0.011522104 0.039071724 -0.039065782 0.03954425 0.0023538738 0.0066509214
0.012889505 0.020172615 -0.012924074 0.00076653523 -0.026558079 -0.009986669 -0.030012095 -0.0028139998
-0.01913245 -0.018342827 0.001283866 0.003208334 -0.025756102 0.04673802 -0.014476059 -0.011418164
0.0032947569 0.03353809 -0.004750081 -0.0122650685 -0.009948521 0.050781243 -0.019068617 0.033006497
0.0069882143 -0.012003623 -0.017791823 0.009068369 -0.0036964826 -0.010679704 0.017875304 0.019884473
-0.0014666641 0.02332243 0.006690617 0.060068082 -0.010300529 0.016538328 0.016187934 0.002689667
0.03263781 -0.02231416 -0.011072568 0.0073934873 0.043784194 0.015640369 -0.0067101126 0.0068789246
0.011806084 -0.016510116 0.01477145 -0.010902449 -0.0068522715 0.00661895 -0.023175387 -0.0055235876
-0.028527388 -0.0020768037 0.009231936 0.020854129 -0.0056601595 -0.017129267 0.0041350303 0.029618822
0.001691613 0.024668 0.012175158 -0.031470153 0.016292183 0.017397158 -0.015187257 0.00944422
-0.018669927 -0.012832956 -0.008181597 -0.0048678843 0.0073688217 0.017457116 0.00695637 -0.0062384107
0.045676574 -0.035012852 -0.0014700615 -7.846671e-05 0.050309632 -0.02065176 0.0072332416 -0.007227105
-0.00595674 0.013949886 -0.012869525 0.038111567 0.0047838427 0.037805215 -0.011533334 0.005905643

MatMul_1 f4 [32, 32]
00000000: c51d 6bbd e4a5 123d 6d36 c33c 466a 9e3d
00000010: ebe0 ce3d e971 80bd f8d0 7739 f983 fa3d
00000020: b69b 483e a2a0 663d 7762 00bd 0cdf 763d
00000030: 82e2 d7bc 6e1d 51bc fae0 d03c 6564 1dbb
00000040: f3ff e23d 7442 9cbd 1686 cd3d 6e25 143e
00000050: a19c 0a3d 6ce3 993c caef e43d 2373 6dbd
00000060: d44a c63d fddb b53c dcbf b73c ca7d ffbd
00000070: 8f07 96bd 8543 a23d 7556 f2bd 7fa2 ddbd
00000080: 03c3 053d 3711 d13d 7fba 46bd 13b0 10bc
00000090: 8250 04be caf6 1bbd 5fe5 273d cda7 3d3d
000000a0: 8c4a 4f3c ab9a 683e f754 a3bd 8dc3 033e
000000b0: 3ea9 c7bd 0ac0 6ebd 6f07 cd3d 575b 1e3e
000000c0: 1802 f63d 3cb1 2c3e 2ae6 ebbd d355 c23d
000000d0: 505f 24bc 54af 513d 9cbd 263d f8ec 99bd
000000e0: d88c fcbc 7649 76bd 8fa5 5cbc b966 15bd
000000f0: 46cd 1abe 7895 143e 36b1 30be d2bf ad3d
00000100: da45 473e 1c59 01bc f533 063e 26b8 0f3e
00000110: d2d4 44be ef2d f63d bdb9 eabc 5790 f63d
00000120: 54cf f6bd 6952 093e 5737 363c abbe 99bd
00000130: 9250 2b3d f4d0 2cbe 0df2 d1bd 1cd3 39bc
00000140: e8d6 2e3d 1230 863d 141b 14be 2017 1ebe
00000150: 556d 563d 42db c33c 4a28 633d 8c7d c93d
00000160: 981a 51be de57 c83d 0cae 273d 57cf f03d
00000170: 44c8 95bd ad91 17be d01a d7bd d151 983d
00000180: b3e2 8a3d 1e95 7dbd 7b64 b5bd 495b 1c3e
00000190: 9b28 d2bd 24c3 a83d 39af 9cbd 6c26 aebd
000001a0: b092 fd3d 6f71 97bd 1e74 223d fad9 f3bc
000001b0: 8930 d33c dbb9 14bd 15c4 4b3d dfda a2bd
000001c0: ac08 c6bd 4b8a cebc 674f 5dbd 7947 3ebc
000001d0: 3747 f3bd 5147 653d 6faf a9bb 059d d23d
000001e0: 6fb2 1f3e 597a 67bd 4a98 c1bd 17f9 45bd
000001f0: de76 2abe f367 dabd 7940 22be 6b65 d5bc
00000200: 7161 aebc e939 d13d 48b1 e8bd 7525 063d
00000210: 596e 1d3e 9072 b8bd d205 073e 4295 09bd
00000220: 9ebb b7bd 7a5d 97bb 5d03 b3bd 1ed5 023d
00000230: 0f98 b83d 3aea 2e3d 48a5 8cbd dce0 08be
00000240: cd6f 03ba 4692 d93d 660e d63d 0fe1 4bbd
00000250: b0df 07bd 8a9e d63c a4be c23d e969 8abd
00000260: d765 69bd 64dc e9bd 4886 fb3c 1b39 09be
00000270: 2f5f 6f3d 365c 1f3e 9b71 473d 663f 363d
00000280: fae4 7f3e a2d7 9f3d e86b 7e3d fb37 b53d
00000290: 298f 243d 48ab 05bd fea6 e9bd 2d36 fb3d
000002a0: 0495 0ebe adf6 d33d f54f 463e 7a79 33bd
000002b0: 4339 3fbc 684d 4b3d f5c3 bfbd a1e7 dfbb
000002c0: 025d 1ebd 4e74 d03c dcf9 eebd e814 113e
000002d0: 2620 0b3e 7eaa a43c f325 bcbd f25b 07be
000002e0: f897 1fbe 5271 413e e513 23bd c19a 3e3e
000002f0: c71f 85bd d70a f8bd c710 e6bd 2f0d 383e
00000300: 24d1 91bd e5a2 523e 816c 713c 631e 4dbd
00000310: 8d86 babd 7c54 253e c71b 03be 3fc9 d63c
00000320: 3ed8 5b3d 5015 cfbc d278 153d 167a eb3d
00000330: e040 ee3b b9a6 3a3e 5e15 b7bd d76c 843c
00000340: f9a8 41be 4308 1ebe f656 3dbb f4f2 c43d
00000350: c828 d63d 3de4 cf3d ebf7 14bd 6fb9 b0bd
00000360: 106c cd3d 6573 4abd 4e1d 92bd 145d 6fbd
00000370: 8950 1dbe d4b6 033c 5a03 1dbe b824 ebbd
00000380: 4c41 10be 6641 fdbc ffd4 b23b 7ca8 8b3d
00000390: 4169 133e 21c0 5a3d 6961 213d 3164 a83d
000003a0: 6615 253e 09d8 093c e2d8 8b3d b495 1c3d
000003b0: 9d21 853d c8ae cdbc b4a7 dc3c 3dba 1e3e
000003c0: 0a13 973d 71cb a7bd 18ad 87bd 6cb5 ad3d
000003d0: 3193 003e 3fc0 b0bc b016 e43b ad55 a7bd
000003e0: cb08 873c 874d a93d d974 97bd d136 4fbd
000003f0: c67c aabc 7f05 1dbe 0790 7dbc 19ce ecbb
-0.057401437 0.035802737 0.023829663 0.07735114 0.101014934 -0.06271727 0.00023633603 0.12232203
0.19590649 0.056305535 -0.031343903 0.060271308 -0.026353125 -0.012763364 0.025497902 -0.0024016139
0.11083975 -0.076298624 0.100353405 0.14467403 0.03384078 0.018785201 0.11178549 -0.05797113
0.09682241 0.022199625 0.022430353 -0.12475164 -0.073256604 0.079230346 -0.118328966 -0.10822009
0.03265668 0.102083616 -0.0485177 -0.008831042 -0.12921336 -0.038077153 0.04099023 0.046302605
0.012652051 0.22715251 -0.0797519 0.12867565 -0.09749077 -0.05828861 0.100111835 0.15464531
0.12012118 0.16864485 -0.1151851 0.09489026 -0.01003249 0.051192597 0.04070817 -0.07515901
-0.030828878 -0.06012865 -0.013467207 -0.036474917 -0.15117368 0.14510143 -0.172551 0.084838524
0.1946024 -0.0078947805 0.13105758 0.14035091 -0.1922181 0.1202048 -0.02865302 0.120392494
-0.120512635 0.13410343 0.0111215925 -0.0750707 0.041824885 -0.16876584 -0.10251246 -0.011341836
0.04268542 0.065521374 -0.14463454 -0.15438509 0.05235036 0.023908261 0.055458345 0.09838399
-0.20420301 0.09782384 0.04093747 0.11758297 -0.07313588 -0.14801665 -0.10503161 0.0743748
0.06781521 -0.061909787 -0.08857056 0.15269198 -0.10261651 0.08240345 -0.076506086 -0.08503422
0.12381494 -0.073946826 0.03966152 -0.029767025 0.02577998 -0.036310058 0.049747545 -0.079519026
-0.09669623 -0.025212428 -0.054030802 -0.01161372 -0.118788175 0.055976216 -0.005178384 0.10283855
0.15595411 -0.056513164 -0.09452875 -0.048333254 -0.16646907 -0.10664358 -0.15844907 -0.026049336
-0.021286698 0.102161236 -0.11361939 0.032750566 0.15374126 -0.09006226 0.13185814 -0.03358961
-0.08971332 -0.0046192976 -0.08740876 0.031941526 0.09013378 0.042703845 -0.068674624 -0.13367027
-0.0005013913 0.106236026 0.10451965 -0.04977518 -0.03317231 0.026198644 0.09509018 -0.06758482
-0.056981888 -0.11418989 0.030703679 -0.1340069 0.058440384 0.1556252 0.048692327 0.044494055
0.24989691 0.078048006 0.062114626 0.08848568 0.04017559 -0.03263405 -0.11408804 0.122661926
-0.13924032 0.10349784 0.19366439 -0.04381702 -0.011671367 0.049634367 -0.09363548 -0.0068330322
-0.038662918 0.025446083 -0.11668751 0.14168131 0.13586482 0.020100828 -0.09186926 -0.13218668
-0.15585315 0.18890885 -0.039813895 0.18613721 -0.06500202 -0.121114425 -0.11233669 0.17973779
-0.071199685 0.20569952 0.014735342 -0.050077807 -0.09107695 0.1614551 -0.12803565 0.026219008
0.05367302 -0.025278717 0.036492176 0.114978954 0.0072709173 0.18227662 -0.08939622 0.01616518
-0.18912114 -0.15432839 -0.0028890944 0.09616652 0.10456997 0.10150955 -0.036369245 -0.08629119
0.10030377 -0.049426455 -0.07134496 -0.058438376 -0.15362753 0.008039195 -0.1533331 -0.11481613
-0.14087409 -0.030914973 0.00545752 0.06819245 0.1439562 0.053405885 0.03939954 0.08222235
0.16121444 0.008413323 0.068284765 0.038228706 0.06500552 -0.025107756 0.026935436 0.15500732
0.07376678 -0.081931 -0.06624812 0.08481869 0.12556149 -0.021576045 0.0069607124 -0.08170638
0.016483685 0.0826674 -0.07395334 -0.050589386 -0.02081145 -0.15334128 -0.015476233 -0.007226717

MatMul_2 f4 [1, 32]
00000000: 6dcb 583d 3e00 c5be 5d3d cfbe f617 9f3d
00000010: 3bc1 483e 26bf ccbe df03 4a3e 6449 093e
00000020: 0a07 883e e75f 8e3e a2a7 263e 348f a33d
00000030: 5ad2 8e3e 7c4f ec3d 1331 bbbe 9f85 213e
00000040: 3813 e7bd 1087 b0be a3c3 ff3d 32fd f13d
00000050: d0ed 303e 026c 3a3e d4ce 643e 9762 d93d
00000060: 6bf9 623e 0e6d bfbe 22a6 d53d 72f3 fc3d
00000070: 7edc 07be 50d6 533e 7b22 c4be 44ae 3f3c
0.052928377 -0.38476747 -0.40476504 0.07768242 0.19604962 -0.39989585 0.19728039 0.13406903
0.2656787 0.27807543 0.16274884 0.07986298 0.2789486 0.11538598 -0.36560878 0.15773629
-0.112829626 -0.34478045 0.124884866 0.11815871 0.17278218 0.18205264 0.22344524 0.10614508
0.22165458 -0.3738789 0.10432078 0.12351121 -0.13267705 0.20687222 -0.38307557 0.011699263
